models/simple_cnn_bs32_ep40_katlian.pth (torch, 517662 bytes, 10 tensors)

conv.0.weight f4 [32, 3, 3, 3]
000000 d1 55 81 bd 4c 4b 1e bc 97 cc 78 bc 81 0c 93 3c
       -0.06315196 -0.009661507 -0.015185497 0.017950298
000010 93 a5 93 bd c7 75 0a 3d 02 6c ae bc ea 55 2e be
       -0.07209315 0.033803727 -0.021291737 -0.17024961
000020 2e cd 59 be b8 3a 96 3d f1 40 5d 3d ef e7 ef 3c
       -0.21269676 0.073354185 0.05401701 0.0292854
000030 cb 9b 11 3e d0 dc c9 3d c2 f0 01 3e c7 49 7d bd
       0.14219587 0.0985657 0.12689498 -0.061837938
000040 2f 8a 05 bb 19 99 29 3e 61 50 10 be 21 e3 84 3d
       -0.0020376553 0.16562308 -0.14093162 0.06488634
000050 85 cb 4e bc c5 12 5f bc d1 0a 05 3e d0 21 17 3e
       -0.012621765 -0.013615315 0.12992407 0.14758992
000060 4d 1e 54 3b 9a 6c d0 bd 26 ec 95 3d 8d 30 91 bc
       0.0032366693 -0.10176964 0.07320432 -0.017723346
000070 93 7b 22 3e a7 78 af 3d 3e ba 77 3d 2e 69 47 bc
       0.15867452 0.085679345 0.06048035 -0.012171073
000080 53 5d 8f bd ec 1c 61 bd df 94 ea bd 17 70 b3 bc
       -0.07000222 -0.054959223 -0.11454176 -0.021904035
000090 a3 5e aa bd ef 51 1d 3e 87 ce 43 3d 92 3a 36 bb
       -0.08318832 0.15363286 0.04780438 -0.0027805907
0000a0 99 2f 45 bd 96 c0 2d 3d 77 58 f5 3a 83 5f 6f be
       -0.048141096 0.042419992 0.0018718381 -0.23376279
0000b0 80 89 37 be 76 02 15 3e 2f f4 67 3e 3e 61 87 3e
       -0.17923546 0.1455172 0.22651742 0.26441377
0000c0 e2 58 cc bd 44 8a 42 be c2 2a 39 3d 6f 85 5f 3c
       -0.099778906 -0.18998057 0.045206793 0.013642653
0000d0 db cb a9 3d 47 6d 4d be f0 50 95 3d 6c f6 f7 bd
       0.082908355 -0.20061217 0.07290828 -0.12107548
0000e0 0d 32 94 bd 32 6c f8 3c a5 49 d0 bd 82 7c ae 3d
       -0.07236109 0.030325029 -0.101702966 0.08519842
0000f0 35 61 19 3e 27 05 45 3e ab 15 21 3e 91 30 3c be
       0.14978488 0.19240247 0.15730922 -0.18377902
000100 76 6d 38 be 25 88 74 be 91 c3 77 3d ec 7e e6 3d
       -0.18010506 -0.2388006 0.06048924 0.11254677
000110 68 95 8b be a6 24 0e 3e 2c ce 0a 3e 7a c6 c2 bd
       -0.27262425 0.13881168 0.13555211 -0.09510513
000120 37 9e f6 bd fb bb ac 3d 0d be d5 bd 57 16 02 3e
       -0.12041896 0.08434292 -0.1043664 0.12703834
000130 88 15 cd ba be ac 9e 3d cf da 09 3e 2f e9 02 be
       -0.0015646676 0.07747792 0.13462375 -0.12784265
000140 9e 22 e0 bd 3a b5 83 be d5 91 3b be 9a 9c 48 3d
       -0.10944103 -0.25724202 -0.1831735 0.048977472
000150 9b a2 25 be 59 67 a4 3d 13 c9 61 be d6 d2 6a 3d
       -0.1617531 0.080275245 -0.2204936 0.057329975
000160 ac 45 4a be e7 6a 0e 3e 18 92 99 3d d2 27 cf 3d
       -0.1975314 0.13907968 0.07498568 0.10115017
000170 9b c8 92 3d eb 6b 37 3d d2 9d a2 bd 54 db 1b be
       0.07167169 0.044780653 -0.07940258 -0.15220386
000180 aa c5 08 be 94 7c d0 3c db 94 ab 3d 96 26 94 3d
       -0.13356653 0.025450028 0.08378001 0.07233922
000190 d3 a4 06 3b a7 5a 8d bc f0 a7 94 3d c2 e3 30 3e
       0.002054502 -0.01725514 0.07258594 0.17274383
0001a0 03 11 f8 3d 72 92 3b 3e f7 a2 56 3e 88 e3 ee bd
       0.1211262 0.18317583 0.20960604 -0.11664492
0001b0 ff 25 92 bd ea d3 5b 3e 06 10 2c be c5 2b 97 3d
       -0.071361534 0.21467558 -0.16802987 0.07381395
0001c0 64 1e e5 bc 87 f1 67 3c 6f 2e 90 3d 15 df dd bd
       -0.027968593 0.014156706 0.070401065 -0.10833565
0001d0 ab c4 c8 bd 3c 0e ea bc e3 7f 3a 3e 00 7f 1d be
       -0.098031364 -0.02857124 0.18212847 -0.15380478
0001e0 c8 62 bb bd 78 b0 17 be 2c d0 db 3d 0f 04 e9 bd
       -0.091497004 -0.14813411 0.10733065 -0.11377727
0001f0 bb 67 34 3e 16 79 bb 3d d9 4d d7 bd ea 60 a4 3e
       0.17617695 0.09153955 -0.10512895 0.3210519
000200 b7 cc 80 bd cc 73 19 3d 3b 49 10 bd 4e ac 70 bd
       -0.06289046 0.037463948 -0.035226088 -0.058758073
000210 52 b5 fd 3d 06 32 d3 bd 21 a0 e2 bb 32 65 20 be
       0.123881 -0.103122756 -0.0069160615 -0.15663603
000220 80 7f 88 3d 9f 8e 0d 3e a2 4f 86 3c 48 b2 2f be
       0.06664944 0.13823937 0.016395394 -0.17157853
000230 fe 76 ac bc dc bd 5a be 1b 5d 79 bd 25 6e a8 bd
       -0.021052834 -0.21361488 -0.060879808 -0.082241334
000240 99 66 88 bc b9 cd e5 bd 6a 92 0a bd c9 a7 97 bc
       -0.016650485 -0.11220879 -0.033831038 -0.018512623
000250 07 dc 2a 3e cb 68 ed bd 76 f1 b7 3d cc f6 ca bd
       0.16685496 -0.11592253 0.08981602 -0.09910354
000260 89 52 2d 3c 4b c3 8a bc 7a 74 14 bd 94 66 19 bd
       0.01057876 -0.016938826 -0.036243893 -0.03745134
000270 48 8c 0f 3e 25 5d 68 bd 09 c5 cc bc 34 16 94 3d
       0.14018357 -0.056729455 -0.024996297 0.072307974
000280 d2 13 48 3e 53 91 1c 3e ca 82 14 bd 31 f8 70 be
       0.19538811 0.15289812 -0.036257543 -0.23532178
000290 05 7e 38 be 55 7f 8a bd fc 40 4a 3b 72 6d fc bd
       -0.18016823 -0.06762568 0.0030861488 -0.123255625
0002a0 93 27 5c be 86 7b fa bd f5 fa 8d bd cb 6c 51 bd
       -0.21499471 -0.122305915 -0.06932632 -0.051129144
0002b0 45 cb 20 3e fd c0 e6 bd 5c 54 c5 bd 60 ff 6d 3c
       0.15702541 -0.11267278 -0.09635231 0.014526218
0002c0 45 62 5e 3e 35 df 1f bc 54 ef 32 3d ff 86 d3 3d
       0.21717174 -0.009757807 0.043685272 0.10328483
0002d0 49 19 a0 3d 5b df 6b bc cf 45 bd bd e3 67 84 3e
       0.07817323 -0.014396514 -0.092418306 0.2586051
0002e0 ab b7 f8 3d 34 c8 03 bd 8d 3f 79 3e 7f 72 02 bc
       0.12144407 -0.03217335 0.24340649 -0.007961868
0002f0 3e 22 fe bd 6b 61 a1 bd 9b af 53 bd 7e 32 0f 3c
       -0.12408875 -0.07879909 -0.051681142 0.008740066
000300 cf a6 51 3b 80 19 28 3e 9a 5b 2e 3e 5f 08 38 be
       0.0031990295 0.16415977 0.1702713 -0.17971943
000310 ed f1 c6 bd fa da 97 3c 06 52 c8 bd 0f d5 90 3d
       -0.097141124 0.018537033 -0.0978127 0.07071888
000320 be 54 0a be 7c 88 f1 3d 9e 6d 01 3e a9 73 e4 bd
       -0.13508889 0.117936105 0.12639472 -0.11154873
000330 67 bf f0 bc fb f1 bd bd 74 d8 cf bd d1 c3 1b 3e
       -0.029388143 -0.0927467 -0.10148707 0.15211417
000340 3f 80 27 ba 5a dd 3e 3e e2 1e 0a 3d fa ce 3f 3e
       -0.00063896546 0.18639126 0.03372086 0.18731299
000350 6e c2 c3 bd 9e 6c 8a bd a6 fc c4 3d 0d 61 14 3d
       -0.09558569 -0.06758998 0.09618501 0.036225367
000360 79 ba 08 3d db c1 a1 3e b8 6f a2 3c 65 89 67 3e
       0.03338096 0.31593212 0.019828662 0.22611006
000370 87 37 fa bb 6e f9 91 bc 3b 42 00 3e 85 27 f0 3d
       -0.007636014 -0.017819133 0.12525265 0.11726288
000380 c0 74 f1 3d b3 d7 52 bc e7 57 75 bd 0f 2b 0d 3c
       0.117898464 -0.0128688095 -0.059898283 0.008616223
000390 8d c3 12 3c 50 66 22 be 9d 0e 08 3e d3 45 1b be
       0.008957756 -0.15859342 0.13286825 -0.15163355
0003a0 81 b4 22 be 22 07 50 3d c2 38 d2 bd aa 10 ff bd
       -0.1588917 0.050788052 -0.10264732 -0.1245435
0003b0 47 84 c0 bd d2 f1 11 3e 54 cc aa 3b a7 9f 09 be
       -0.0940023 0.14252403 0.005212346 -0.13439809
0003c0 df da fb bb 6e 3f 81 bd 0d 75 f7 3c 01 58 48 3e
       -0.0076860036 -0.063109264 0.030207181 0.19564821
0003d0 97 e3 d5 bd 8b 95 c9 3c 78 38 29 3e 0b 5a 1f 3d
       -0.104438 0.02460744 0.16525447 0.03890423
0003e0 78 52 5a 3e 10 9d 18 be 49 35 c4 3d 33 e1 82 3c
       0.21320522 -0.14903665 0.09580476 0.015976524
0003f0 7d ff ef bd bd 21 f9 3d 4d d6 bc 3d 51 30 16 be
       -0.117186524 0.12164638 0.09220562 -0.14666869

conv.0.bias f4 [32]
000000 b4 20 f4 3d f2 e3 4b be c7 b0 eb bd ef 95 5a 3e
       0.119203 -0.19911173 -0.11508327 0.21346258
000010 66 22 43 be 67 91 43 3e 6d 86 09 be 4d 13 4f 3e
       -0.1905609 0.19098435 -0.13430186 0.20222206
000020 c2 e5 6b 3d a2 4c 0e bc 2c 3d 7e be fa 85 8a be
       0.05759216 -0.008685263 -0.24828023 -0.2705534
000030 ba b5 e6 3c f2 b7 8b be 97 36 3d be c7 37 15 3d
       0.028162826 -0.27288777 -0.18477856 0.036430147
000040 d9 0f c2 3d 2d 14 51 be c9 77 94 be bb 96 cc 3e
       0.09475679 -0.20417853 -0.2899764 0.39958748
000050 04 17 9c be 79 3a 7b be 23 6e 27 3d 47 28 34 3d
       -0.3048631 -0.24534024 0.04087652 0.043983724
000060 5e b9 78 3d 29 14 b2 be e2 28 ac bd f8 13 71 3d
       0.060723655 -0.34781006 -0.08406235 0.058856934
000070 13 3c 83 3c bc fc d5 3d ae 88 46 be b5 95 9f bd
       0.016019857 0.10448596 -0.19388077 -0.07792226

conv.3.weight f4 [64, 32, 3, 3]
000000 af 53 e8 3c 8d 81 da 3b ed ee 24 3a de f8 cd 3c
       0.028360216 0.0066682757 0.0006291706 0.025143083
000010 8d 2a 58 bd d4 e2 49 3d 29 d2 00 bc b7 58 1c 3d
       -0.052774955 0.049288586 -0.007862606 0.038170543
000020 a1 08 dd 3b 31 aa 87 bd 3f 52 cd bd 66 5f c6 bc
       0.0067454134 -0.06624258 -0.10025453 -0.024215411
000030 7a 4c c1 bb 15 55 83 bd dc 83 7e bd f3 87 8d 3d
       -0.0058990093 -0.064127125 -0.06213747 0.06910696
000040 75 59 5b 3d 1b 1f 18 bd 90 7d 5a 3c 1a 1d e2 3c
       0.05355211 -0.03713904 0.0133356005 0.027601767
000050 8e c1 6d 3d 1b 66 db bc bf 13 b5 bc 25 07 5d 3d
       0.058045916 -0.026782086 -0.022104142 0.05396189
000060 e3 03 e1 bd ca ec 85 bc 9f cc bf bd 53 c2 54 be
       -0.109870695 -0.016348261 -0.093652 -0.20777254
000070 68 6d 89 be 47 be 7c be 02 57 5c be 58 23 a0 be
       -0.26841283 -0.2468196 -0.21517566 -0.31276965
000080 79 a5 9b be f0 ff 49 be ee 78 3a be df 8b 6d be
       -0.30399683 -0.19726539 -0.18210194 -0.23197888
000090 29 a0 14 3d 27 80 09 3d 75 0a 7b 3c 00 13 4e 3c
       0.036285553 0.03356948 0.015322317 0.012577772
0000a0 17 5f d9 bc 3f 16 89 bd 6d ac 6b bd fd dc 9f bd
       -0.0265346 -0.06693696 -0.057537485 -0.07805822
0000b0 39 10 35 bd e8 1d db bd b0 73 bc bd f7 fb 0f be
       -0.044204924 -0.106990635 -0.09201753 -0.1406096
0000c0 bf c3 b0 bd 6e 93 89 bd 11 03 11 be cf 37 2b bd
       -0.086310856 -0.06717573 -0.14161326 -0.04180127
0000d0 76 0a be bd 6d f0 62 bd c8 22 13 be 7d e1 71 bd
       -0.09279339 -0.05540507 -0.14368737 -0.059052933
0000e0 d0 ce 06 be 92 f5 ee bd 71 0b f8 bd 15 13 19 be
       -0.1316483 -0.116679326 -0.12111557 -0.14948685
0000f0 f0 1e a8 bd 6c 4e 7c bd e9 6d 0c be 4e 53 ba bd
       -0.08209026 -0.061598226 -0.13713802 -0.0909792
000100 56 19 e3 bd 5e 5c 66 bd 88 52 a3 bd 82 dc d2 bd
       -0.11088817 -0.056240432 -0.07974726 -0.10295965
000110 10 88 98 bd d8 17 69 bd 0b 83 0b be 2f 84 b4 bd
       -0.07447827 -0.056907505 -0.13624208 -0.088142745
000120 fb 30 3f 3d c8 41 97 3d c1 80 65 3d e1 ce b3 3d
       0.04667757 0.07385594 0.056030992 0.087796934
000130 7c 34 8a 3d 8f 83 d2 3c 22 b0 19 3c cb ea 4b 3d
       0.06748292 0.025697498 0.009380372 0.049784463
000140 df a7 00 3d 0d 3a 19 be 0c 05 35 be 14 ac 77 be
       0.031410094 -0.14963551 -0.17677706 -0.24186736
000150 bf 38 68 be 84 87 34 be 73 60 5a be 55 83 25 be
       -0.22677897 -0.1762982 -0.21325855 -0.1616338
000160 59 41 64 be f4 4a 88 be 7f 6a 53 3d 7a fb c5 bc
       -0.22290553 -0.26619685 0.051615234 -0.024167765
000170 02 8c 0e 3d fe b1 16 3d 07 04 1e bd 15 11 6f bd
       0.03480149 0.03679084 -0.03857806 -0.0583659
000180 fa 66 35 bd bc a2 4f bd ec f9 e2 bc fa 2d cd 3c
       -0.04428766 -0.050692305 -0.027707063 0.025046337
000190 0c 31 c3 3d 51 82 23 3d 9d b0 b3 3d f1 0f 40 3d
       0.09530839 0.0399192 0.08773921 0.046890203
0001a0 d2 8e 23 3c fa dc c6 3d 29 0b a5 3c 7f 0b 83 3d
       0.0099827815 0.09710117 0.020146923 0.06398677
0001b0 6c 7f b1 bd 0e 4e d1 bd a4 e9 e2 bd 78 e9 b6 bd
       -0.08666882 -0.10219966 -0.1107972 -0.089312494
0001c0 af 77 57 bd 6e 32 c4 bd a5 84 26 3c ff 6b f5 bb
       -0.052604374 -0.09579931 0.010163461 -0.007489681
0001d0 d1 63 cb bd 16 e6 84 3b fa 63 a7 3b a5 9d 55 3d
       -0.09931148 0.0040557487 0.0051083537 0.052152295
0001e0 37 d3 f4 bd c9 dd b8 bd 73 a0 c9 bc b1 87 8d bd
       -0.119543485 -0.09026677 -0.024612641 -0.06910647
0001f0 a5 59 06 bd 8a 98 bd bd bf 4e 9b bd a0 8b 48 3c
       -0.032800335 -0.0925761 -0.07583379 0.01224032
000200 7e cb b9 3b b9 a5 c7 bd 34 2c 0d be 50 b4 9a bd
       0.00567001 -0.09748406 -0.13786393 -0.07553923
000210 c0 57 a5 bd 37 56 80 bd 13 c4 2a bd 29 7f 08 3d
       -0.080733776 -0.06266444 -0.041690897 0.033324394
000220 c4 a6 9c 3d 05 80 67 3d 83 fa fa bc f6 30 34 bd
       0.076489955 0.056518573 -0.030637031 -0.043992005
000230 47 bd 30 3b 48 5f 1d 3c 63 43 a3 bd c0 8c 91 bd
       0.0026968287 0.009605236 -0.07971837 -0.07106924
000240 78 fb bd bd 5a 53 66 bd f4 bd 00 be 62 a8 be bd
       -0.092764795 -0.056231834 -0.12572461 -0.0930946
000250 0a 3c b4 bd a7 f1 0d be e9 01 a5 bd 1c 99 23 3b
       -0.08800514 -0.13861714 -0.08057005 0.0024963086
000260 5c 53 7a bd 05 f7 9f 3d 67 f4 aa 3c 79 3e 80 3d
       -0.061114654 0.07810787 0.020868493 0.06261916
000270 ec 3b 8e 3d 52 b2 66 3b 34 75 cd 3d 01 f4 c3 3c
       0.06945023 0.0035201502 0.1003212 0.023920061
000280 0e fc c0 bb 05 ef b4 3d 4f 56 ad be 8d 8d 81 be
       -0.0058894223 0.08834652 -0.3385491 -0.25303307
000290 21 47 9a be c0 98 0c be 54 89 80 bd 73 91 b2 be
       -0.30132392 -0.13730145 -0.06276193 -0.34876594
0002a0 82 aa bb be 4c 0d a4 be 50 3d d3 be db c3 40 be
       -0.36653525 -0.32041395 -0.41257715 -0.18824713
0002b0 ea dd 0c be 39 be 94 bd 87 3e 4f be 48 c4 3c be
       -0.13756528 -0.072628446 -0.20238696 -0.1843425
0002c0 2a 11 11 be 01 b9 2b be 77 1f 5a be ae 47 1f be
       -0.14166704 -0.16769792 -0.21301065 -0.15554687
0002d0 34 22 8d bd da ac 6d 3c 9f fc 9c bc a2 ad 2d bd
       -0.06891289 0.014506543 -0.019163428 -0.042401917
0002e0 3f fb b6 bd 9d 6f 58 bb 63 be 0a be 1b 30 13 be
       -0.0893464 -0.003302551 -0.1354919 -0.1437382
0002f0 46 5c d0 bd ee e0 5f bd 80 01 7d bc 08 f3 63 bc
       -0.1017385 -0.05465787 -0.015442252 -0.013912924
000300 7c 6f 0f bd 80 4e fd bc 31 5b 65 bd fb 7d 48 bd
       -0.03501843 -0.03092122 -0.05599517 -0.04894827
000310 cb c2 04 3d ad 3a 21 bb 10 96 d2 bd 44 32 59 bd
       0.03241233 -0.0024601624 -0.102825284 -0.053026453
000320 49 40 0e be 0e f0 e4 bd 34 c3 d5 bd fe 5c 10 be
       -0.1389171 -0.11178599 -0.10437623 -0.14097974
000330 ce 91 01 be 14 04 b3 bd dd 2f 1e be 49 2f 08 be
       -0.12653276 -0.08741012 -0.15447946 -0.13299288
000340 61 ee d9 bd 41 d3 d8 bd a7 49 31 be 38 0a 38 be
       -0.1064117 -0.105871685 -0.17313252 -0.17972648
000350 f8 03 ae bd e0 21 f9 bd 22 39 6d bd bc 01 cd bd
       -0.08496851 -0.12164664 -0.057915814 -0.100100964
000360 be 26 8e bd 54 21 9a bd 90 fe 94 bc 3d c9 90 bd
       -0.06940983 -0.07525888 -0.018187791 -0.07069633
000370 09 38 1b 3d 7e c0 38 bd ec 60 0f 3d 95 d4 15 bd
       0.037895236 -0.04510545 0.03500454 -0.036579687
000380 67 2b 8c 3c ea 57 0c ba 6f bf c2 bc 3b b6 95 3c
       0.01711054 -0.00053536764 -0.023772923 0.01827537
000390 52 fe 95 3c 4b b7 09 bd 89 6a 85 3c b3 e8 30 bd
       0.018309746 -0.033622067 0.016286151 -0.04319067
0003a0 b8 2d 1e bd 44 0c b1 bd b2 d4 3c bc 8d ec 8b bd
       -0.03861782 -0.086449176 -0.01152532 -0.06832228
0003b0 f2 27 33 bd e9 79 70 ba 25 50 3c bd b5 c6 68 3c
       -0.043739267 -0.00091734395 -0.04597487 0.014207532
0003c0 96 5b 91 bd ed 97 cc bc da e0 bc bd 6f 78 4a be
       -0.07097547 -0.024974788 -0.092225745 -0.19772504
0003d0 bc a4 70 be 1d f7 38 be 8f 72 4d be 45 cb 31 be
       -0.23500341 -0.18063016 -0.20063232 -0.17362697
0003e0 10 f2 06 be 37 11 04 be a3 25 de bd 99 d5 a5 bd
       -0.13178277 -0.12897192 -0.108470224 -0.08097381
0003f0 47 4a 87 b8 98 38 9a bd c0 44 4b 3c b9 e4 a3 bb
       -6.451137e-05 -0.07530326 0.012406528 -0.005001631

conv.3.bias f4 [64]
000000 63 66 a1 bd a2 23 73 bd b9 2f 2e 3e 5b 6d 26 be
       -0.07880857 -0.059360154 0.17010392 -0.16252653
000010 84 5d 29 bd 10 95 c9 3d 41 3b 9b bd 28 00 4d be
       -0.04134895 0.098428845 -0.07579661 -0.20019591
000020 22 16 e0 bd 3a af 3c 3d 69 76 a3 bd e5 d0 92 bd
       -0.109417215 0.046065547 -0.07981569 -0.0716875
000030 62 5e 7c 3e 77 3a cc 3d 6a 1d 3b be 04 6b 0f be
       0.24645379 0.09972089 -0.1827294 -0.14005667
000040 03 9a 1e bd 64 22 3d bc 24 fb 3c 3d f1 00 22 be
       -0.038721096 -0.011543844 0.046137944 -0.15820672
000050 4f 74 c6 bd bf 7f 3b bc a1 00 e6 bd 99 e2 e7 bc
       -0.09690153 -0.011444031 -0.11230589 -0.028306292
000060 6b ec 22 bd 12 98 db bd e3 12 11 3d 5c c5 28 bc
       -0.039776247 -0.107223645 0.035418402 -0.01030096
000070 a7 c0 75 bd b4 db 16 be 60 32 9c be 96 bb 32 bd
       -0.05999818 -0.14732248 -0.30507183 -0.043635927
000080 5b 55 ef 3d 5b 17 35 bd b7 de 17 bd 04 22 ec bc
       0.11686202 -0.044211727 -0.03707763 -0.028824814
000090 35 17 19 bd de 5a 25 3e 5d 73 8d 3d f1 63 71 3e
       -0.037375648 0.16147944 0.069067694 0.23573281
0000a0 41 1d 19 3d 3d 02 5c bd c5 ad 52 bd 66 79 f9 3d
       0.037381414 -0.053713072 -0.05143525 0.12181358
0000b0 81 df 46 bd f8 35 a4 3e f3 e8 aa 3d 71 52 4e be
       -0.048552994 0.32072425 0.08345213 -0.20148636
0000c0 c8 35 48 bb 34 57 ef bd 0b dc 87 3e d8 53 23 bd
       -0.0030549634 -0.116865546 0.26535067 -0.03987488
0000d0 be 0f 5d be f0 20 43 bd ad 80 29 be 66 91 aa 3e
       -0.21588036 -0.047638834 -0.16552992 0.33314055
0000e0 b4 b3 fa bc cd e1 89 3e 53 4e 85 3d 0c a5 27 be
       -0.030603267 0.26930085 0.0650908 -0.16371554
0000f0 65 4b 6e be 5d 9c ca bd 86 b7 cc bd d7 9a 55 3e
       -0.23270948 -0.09893105 -0.09995942 0.20859848

conv.6.weight f4 [128, 64, 3, 3]
000000 40 a0 1f bd c4 3c f8 3b 89 8c 55 bd 4e 05 57 bd
       -0.038971186 0.007575603 -0.052135978 -0.052495293
000010 15 76 3f bd 51 8f 34 bd 39 2f 5d bd 4d 66 de 3c
       -0.04674347 -0.04408199 -0.054000113 0.02714839
000020 3c 6a 4e bd 9a cf 29 bd 35 74 35 bc 91 21 b7 3c
       -0.05039428 -0.04145775 -0.011075069 0.022354873
000030 1a 1d 05 3d a4 d9 fc bb c2 6c d4 3c f0 54 47 3c
       0.032498457 -0.0077163745 0.025930766 0.012166247
000040 29 6a 2e bd f0 7b 47 bc dc 1b 49 bd d9 e7 7e 3b
       -0.04258171 -0.012175545 -0.049098834 0.0038895516
000050 9b 86 28 bd 42 1c e2 bc a9 7b 10 bd 04 27 15 bd
       -0.041143995 -0.027601365 -0.03527418 -0.03641416
000060 43 cb 94 bc 5d 05 b8 3c 66 2e 40 bd 16 75 bd ba
       -0.018163329 0.022463495 -0.04691925 -0.001445445
000070 26 8a 7c bc f5 5f 74 bd 34 d6 45 bd de b6 68 bd
       -0.0154137965 -0.059661824 -0.048299983 -0.05681502
000080 e7 d2 90 bd ab da a0 bd e9 fc 59 bc 64 7a 84 bd
       -0.070714764 -0.078542076 -0.013304927 -0.06468657
000090 20 16 6c bd bd 05 7d bd f9 61 ca ba 42 bc f0 bc
       -0.057638288 -0.06177305 -0.0015440575 -0.029386643
0000a0 af b3 6a bd ba ba 53 bc 50 8e 41 bd cf 7e 8d 3c
       -0.057300266 -0.012922937 -0.04725486 0.017272381
0000b0 cf a0 36 bc 96 cc 9d 3c 98 1e 66 bc 81 14 64 bd
       -0.011146738 0.019262593 -0.01404538 -0.055683617
0000c0 4e 10 57 bc 6a cf 4e 3b 9d df 05 bd ca 3a df bc
       -0.013126446 0.0031556734 -0.032683957 -0.027249712
0000d0 7e 62 05 bd 92 8a f1 3c b6 64 02 bd 98 d8 9d bd
       -0.032564633 0.02948502 -0.031834327 -0.077073276
0000e0 32 78 fd bc 58 1b 82 bd 9d df 26 bd 48 20 64 bd
       -0.030941103 -0.06352872 -0.040740598 -0.05569485
0000f0 cb 9a 9b bd ec 32 32 bd 7b 4c 7f bd 2c 1a 95 bd
       -0.07597884 -0.043505594 -0.062328797 -0.072803825
000100 cc 6f 2d bd dd f7 91 bd fd 3d ab bd 26 79 ce bd
       -0.042342946 -0.07127354 -0.08361433 -0.10081701
000110 3d af e1 bd cc d0 ff bd 15 4c 99 bd 2f 1d c1 bd
       -0.11019752 -0.12490997 -0.074852146 -0.094293945
000120 dc 20 0c 3b 95 34 0f bd 8c 9f 9c bb af 81 5d bc
       0.002138189 -0.034962256 -0.0047797617 -0.0135196885
000130 28 15 74 bc 43 20 f6 3c 11 9b cd bc b5 0b 01 bd
       -0.014897622 0.03004468 -0.025098355 -0.031505305
000140 01 bb 17 3d 6c 39 53 bd 44 e6 83 bd 7d 64 ae bd
       0.037043575 -0.051568434 -0.06440404 -0.0851526
000150 d5 c6 51 bd 90 86 17 bd ec d3 97 bc 89 55 c4 bd
       -0.05121501 -0.036993563 -0.01853367 -0.09586627
000160 dc 37 a9 bd 71 89 0b bd 77 78 ce bc 1a f1 99 bb
       -0.082626075 -0.03406662 -0.025203926 -0.004697931
000170 70 6e c0 bc 62 44 4e bc 6e c8 89 3c c9 b0 ca 3c
       -0.02349016 -0.012589546 0.016819205 0.0247425
000180 c3 91 21 bc b4 2d 3c 3d 7c f4 a1 bc 80 98 0b 3d
       -0.009861412 0.045942023 -0.0197699 0.034080982
000190 4f dd ec bc b8 a3 07 bd b7 b1 59 bd 4c ea 86 bc
       -0.028914122 -0.03311512 -0.053147998 -0.016469143
0001a0 84 3b 52 bd 60 e2 95 3c 77 5c 4a 3b 15 ee 9d bc
       -0.05132629 0.01829642 0.0030877867 -0.019278565
0001b0 80 06 28 bc c1 7c b8 bc 1b 77 43 bd a0 64 a6 bc
       -0.010255456 -0.022520425 -0.04772101 -0.020311654
0001c0 79 c2 63 bc c0 ce 66 bd 6a b6 67 bc 02 dc 7c bc
       -0.013901346 -0.056349516 -0.014142612 -0.015433313
0001d0 96 a1 32 bd 66 09 5a bd a1 cb 94 bd fa 68 49 bd
       -0.04361113 -0.05323162 -0.07265402 -0.04917238
0001e0 0f 30 73 bd ac b9 bd bc 95 7f 53 bd bf bc 6a bd
       -0.059372004 -0.023159824 -0.051635344 -0.05730891
0001f0 0e fc 98 bd 21 25 dc bd b6 6a 9e bd 6a c1 65 bd
       -0.074699506 -0.10749269 -0.07735197 -0.056092657
000200 8c 27 95 bd de 64 76 bd bb 0a c8 ba 54 9e 77 bd
       -0.072829336 -0.06015479 -0.0015261987 -0.060453728
000210 61 ad b0 bd 85 6e 81 bd 4e d4 a4 bd c0 d6 dc bc
       -0.086268194 -0.06319908 -0.080483064 -0.02695787
000220 e3 2a 2e bd 00 0c a1 bd f9 38 13 bd e4 b9 81 bd
       -0.04252137 -0.07863617 -0.035943005 -0.06334284
000230 28 8f 7f bd 34 d1 99 bc e8 46 a9 bd 74 1e 56 bd
       -0.062392384 -0.018776514 -0.082654774 -0.052275136
000240 0b 50 13 3c 2a 5b 89 bc 89 06 58 bd 03 e7 86 bd
       0.008991252 -0.016767103 -0.052740607 -0.06587031
000250 86 bc 44 3b ca 47 ef bc c4 d0 0d bd 05 28 18 bd
       0.0030019595 -0.029209036 -0.034622923 -0.03714754
000260 2b bb 8a bc 13 2d 0d bd 0c 24 98 bc 68 ad 73 bd
       -0.016934952 -0.034466814 -0.018571876 -0.059491545
000270 8d 0a 99 bd 89 7b 8b bd 4a 2e 41 bd b2 a5 8e bd
       -0.074727155 -0.06810672 -0.047163285 -0.069651976
000280 97 6b 1a bd 09 2b df bc ff ad 8e bd b5 16 89 bc
       -0.037700262 -0.0272422 -0.06966781 -0.01673446
000290 df 68 41 ba da ce 89 3c ff 01 d9 bc c3 6c b2 ba
       -0.0007377993 0.016822267 -0.02649021 -0.0013612736
0002a0 db e1 a1 bd fa 7e ba bb b1 b0 c1 bc b4 13 3d bd
       -0.07904407 -0.0056914063 -0.023643823 -0.04616137
0002b0 da ca 01 bd ac a7 06 bd 92 dc 9a 3b be 33 25 bd
       -0.031687595 -0.032874748 0.004726001 -0.04033255
0002c0 d2 ee 8c bb 7a 45 fd bc 8a 8c eb bb 6d ad a2 bb
       -0.0043009305 -0.030916918 -0.0071883844 -0.0049645216
0002d0 b4 0f 05 3c 1e 46 9d 3a d8 a7 ec bc f6 4f 25 bd
       0.00812142 0.0011999046 -0.028888628 -0.04035946
0002e0 50 db dc 3a bd 36 56 bd b5 f6 98 bc fa ca 01 3c
       0.0016850028 -0.052298296 -0.018672327 0.007921929
0002f0 27 ff e5 ba 60 66 c3 3c 5a ad 21 bd 99 b1 06 bb
       -0.0017547355 0.023852527 -0.03947196 -0.0020552634
000300 a7 cc a8 3c c3 e4 10 bd 34 22 51 bd c5 14 15 bd
       0.020605398 -0.035374414 -0.05105801 -0.03639676
000310 cc b1 7a bc e2 cc af bb 1b 11 0c bd ec b1 57 bb
       -0.015301179 -0.005365 -0.034196 -0.0032912446
000320 88 d1 4d bd 0e 70 63 bd 50 4a 1d bd c3 58 53 3c
       -0.050248653 -0.055526786 -0.038400948 0.01289958
000330 ce 3a 34 bd db d7 bf bc 0c ee 9c 3b 1b 97 45 bc
       -0.044001393 -0.023418358 0.0047891196 -0.012059952
000340 9d 4c 32 bc de 62 4d 3c 35 e0 33 bd 9e 17 db bc
       -0.010882524 0.012535779 -0.043914992 -0.02674466
000350 66 da 94 bb cb bd 46 bd 38 7d 1f bd 53 fb 74 3c
       -0.0045426367 -0.048520844 -0.038937777 0.0149524985
000360 74 73 4e bd fb 9b 15 bd 5b 7a 55 bd d0 c4 90 ba
       -0.050403073 -0.036525708 -0.05211864 -0.0011044983
000370 f2 df 86 bb 50 e3 ab bc 22 96 d1 bc fa 95 46 bd
       -0.004116052 -0.020982414 -0.025584284 -0.048482873
000380 c2 e2 e4 bc 08 a8 30 bd 9a 76 ef bc e8 1b b6 bd
       -0.027940158 -0.043128997 -0.029231358 -0.088920414
000390 13 a9 60 bd 45 2e 34 bd 08 ff f2 bc 59 91 7b bd
       -0.05484874 -0.04398944 -0.029662624 -0.06141791
0003a0 cb 24 7f bd 5a e6 d8 bc f8 cf 10 3d 08 5b 1b 3d
       -0.062290948 -0.026477028 0.035354584 0.03792861
0003b0 58 10 30 bd 3b 0b c2 bb 28 b5 3e 3d 03 88 be 3c
       -0.042984337 -0.005921749 0.046559483 0.023258215
0003c0 c4 3a d7 bc 34 97 1a 3d 51 d8 20 bd 6c 17 ce bd
       -0.026273139 0.037741855 -0.039268795 -0.10063061
0003d0 a2 95 48 bd 0b ba d0 bc 57 71 93 bd 05 b5 99 bd
       -0.048970826 -0.025479337 -0.07199352 -0.0750523
0003e0 32 4b 1a bd e0 68 30 bd c7 c2 a4 bd 8d 00 b8 bd
       -0.037669368 -0.043068767 -0.08044963 -0.0898448
0003f0 61 71 e3 3c f6 eb 5a 3c e6 a4 3d bd 75 97 cf bc
       0.027764024 0.0133619215 -0.046299838 -0.025340775

conv.6.bias f4 [128]
000000 2b ea 8c bd af e2 93 3b fc 08 7e 3d dd d7 2d bc
       -0.068806015 0.004513107 0.062020287 -0.010610548
000010 0b 41 94 bc a3 4a 30 be 32 5d a7 bd 18 85 63 bd
       -0.018097421 -0.17215972 -0.081720725 -0.05554685
000020 ac 96 b2 bd 38 85 25 3e ea 1e 29 3d 37 fd 31 be
       -0.08720145 0.161641 0.041289248 -0.1738175
000030 d9 83 c8 bd ee c1 ca bc aa 4c 66 bd d7 31 54 bd
       -0.09790773 -0.024750676 -0.056225456 -0.051805343
000040 5f a6 4b bd f1 44 81 bd 0b 47 20 bc 77 ee 5b bd
       -0.04971921 -0.06311978 -0.009782563 -0.053694215
000050 72 01 2f 3c 7d 07 30 3c b3 91 43 be bb 3c 96 bd
       0.010681497 0.010743973 -0.19098549 -0.07335802
000060 2b d3 e4 bd 03 f5 e5 bd ac 35 3f 3e ae d7 1e be
       -0.111730896 -0.11228373 0.18672818 -0.15511963
000070 77 24 ce bd 38 ab 2f bc 50 c0 ca be 07 f5 44 be
       -0.10065549 -0.010721974 -0.39599848 -0.19234096
000080 37 f2 ab bc fc 3f 1d bd 47 28 b7 bd 4e 98 8b bd
       -0.02098952 -0.0383911 -0.08943229 -0.06816159
000090 c6 49 bd 3d cf f6 23 bd 25 7f 69 3e 9d d4 6d bd
       0.09242587 -0.040030297 0.22802408 -0.058064092
0000a0 74 f6 80 bc 67 2e a3 3d ca f7 06 3e f2 58 3e 3e
       -0.015742518 0.07967835 0.13180462 0.18588617
0000b0 b1 06 5d bc 79 ca a6 bd 66 60 7a bd 01 c6 ec 3d
       -0.013490365 -0.08144087 -0.06112709 0.11561204
0000c0 83 d9 8d bd cd 24 bf bc 63 b5 4d be 3c 05 bc bc
       -0.06926253 -0.023332978 -0.20088725 -0.022951715
0000d0 41 25 85 3e 55 2a ce 3d 88 ee c5 3d ce 6d 8c 3c
       0.26004985 0.10066668 0.09664637 0.017142203
0000e0 c5 48 b7 bd 6d da f3 bd 85 67 40 bd b2 ad c7 3d
       -0.089494266 -0.11906896 -0.046973724 0.097499266
0000f0 88 a3 95 bd d5 e0 50 3d 32 6c bd bd 36 c5 c0 bc
       -0.07306582 0.050995667 -0.09249152 -0.023531538
000100 4e f5 80 3d e5 17 d7 3e dc 27 16 3e ea eb bb bc
       0.06296788 0.42010418 0.14663643 -0.022939641
000110 3b 73 ab 3b 1f bf 8e bd 57 6d 08 bc c0 f6 8e bd
       0.0052322424 -0.06970047 -0.00832685 -0.069806576
000120 ea ed 75 3e 4b 7c a7 3d 91 bb b5 bd 9e 4c ce 3d
       0.24016538 0.08178004 -0.08873666 0.10073207
000130 df 07 ad 3e 2f b8 ae bd 9b f9 c8 bc 42 61 cf 3c
       0.33795068 -0.08531224 -0.024533084 0.02531493
000140 4a 52 1b be 8d 76 6b 3d 81 7a 40 bd 50 fc 1a 3e
       -0.1516811 0.057486106 -0.04699183 0.15135312
000150 bd 94 3f 3c 85 38 81 3d a5 ad 97 3d fe 9a 10 be
       0.011693177 0.06309608 0.07406167 -0.14121625
000160 7f 64 8d bd ee 93 b2 bd 28 52 be 3d cc 0f c3 3e
       -0.06903934 -0.087196216 0.09293014 0.3809799
000170 0a ea 54 3e af ae 2d 3e eb 4e af bc c2 9c 87 bd
       0.20792404 0.16961168 -0.021399936 -0.06621696
000180 08 56 26 bd 12 f7 42 bd 7f 85 13 bc b8 58 6b bd
       -0.04060939 -0.047598906 -0.009003996 -0.057457656
000190 71 28 70 3d b3 46 0b bb dd 29 10 3e 3d 96 33 bd
       0.058632318 -0.0021251857 0.1407847 -0.04384445
0001a0 b1 eb d7 bd dd 80 82 3d 1f 7e a7 bd cc 15 b6 bd
       -0.105430014 0.06372235 -0.081783526 -0.08890876
0001b0 f3 98 84 bd 2d 88 c2 3d 0b a0 2c bd 0b 61 4b 3c
       -0.06474485 0.0949863 -0.042144816 0.012413274
0001c0 d4 70 16 be 32 3b b9 3e 98 56 67 3d 82 0a 1b 3c
       -0.14691478 0.36177975 0.056479067 0.0094629545
0001d0 b3 5d 89 3d 77 cf fb 3c 07 24 ea 3a 29 7b ab be
       0.06707325 0.030738575 0.001786352 -0.334924
0001e0 99 79 37 3c 3d 22 3f bd 82 08 07 bd ab a9 d0 3d
       0.011198425 -0.04666351 -0.032967098 0.101886116
0001f0 c7 a2 bf bd 5a 9e d3 3c 53 64 cb 3d 2d 50 01 3e
       -0.09357219 0.025832344 0.09931245 0.12628241

fc.1.weight f4 [256, 128]
000000 4c 5c 61 bd df ec 7e 3d 8a 54 4a bc a3 1a a4 bd
       -0.05501966 0.062237617 -0.012349257 -0.08012893
000010 37 be 49 bd 61 89 53 bd c8 ca 97 bf 95 27 19 bd
       -0.04925367 -0.051644687 -1.1858759 -0.037391264
000020 86 8a 06 bd 17 b1 89 3a e6 fe 5f bf 8e 4c 7a 3d
       -0.03284695 0.0010505047 -0.8749832 0.061108164
000030 fe 09 1b 3e 51 fc db bd 81 7b 9e 3d 38 9f ec bd
       0.1514053 -0.10741485 0.077384 -0.11553806
000040 39 de 1c bc 60 20 27 bd 6b 91 62 bd 49 a2 16 3d
       -0.009574466 -0.04080236 -0.055314463 0.03677586
000050 57 1d 2f 3e a3 31 0a bc 4a 22 ab 3d 41 ba bb 3d
       0.17101036 -0.008434686 0.083561495 0.091663845
000060 4b 90 5f bd 24 d2 41 bf 1a 66 83 bd e8 d2 0f 3e
       -0.054580968 -0.75711274 -0.06415959 0.14045298
000070 16 fd 1f 3d 22 f2 ac bd 51 e6 3f 3d a5 c7 1e bc
       0.03905972 -0.08444621 0.046850506 -0.009691154
000080 44 9e 14 bd d9 c4 8e 3d 4d a8 1c bc ef 43 fb bb
       -0.036283746 0.069711395 -0.00956161 -0.0076680104
000090 7b b1 73 3d 6f 4f b0 3d 6c 01 a7 3d 6e 8e ab bd
       0.05949543 0.08608901 0.08154568 -0.08376776
0000a0 6d 54 a5 bb a6 00 90 bf e7 b0 36 bf 5d fc 87 bd
       -0.0050454647 -1.1250198 -0.7136368 -0.06639931
0000b0 bd 19 cb bd d0 0f 31 bf 15 ef e2 bc bc f2 1a 3c
       -0.099170186 -0.6916475 -0.027701894 0.009457286
0000c0 03 e0 58 3d d0 dd de 3c be f3 74 be 7d d5 a2 bd
       0.05294801 0.027205378 -0.23921105 -0.07950876
0000d0 27 14 68 3d e0 2a 42 bd 21 d7 34 bd f4 6a 19 3d
       0.056659844 -0.04740417 -0.044150475 0.037455514
0000e0 c4 92 a6 3d 1e 9e 06 bf 8a 2b 88 3d 33 be 93 3d
       0.08133462 -0.5258502 0.066489294 0.07214012
0000f0 d1 3e 11 bd c3 e1 3c bf 6f 85 d9 bb 49 20 d4 3d
       -0.035460297 -0.73781985 -0.006638221 0.103577204
000100 ee 32 b1 3d 8a e5 f8 bc 3d 63 c5 be a7 93 42 bf
       0.08652292 -0.03038289 -0.38552275 -0.7600655
000110 6c f6 8c bd 06 d3 13 3d 42 ec f5 bc a6 03 c5 3c
       -0.06882939 0.03608992 -0.030019883 0.024049591
000120 89 dc 58 be e4 93 8f bd 8e 17 e8 3d a8 fe c8 bd
       -0.21177877 -0.0701063 0.11332618 -0.09814197
000130 2c 36 3b 3d 06 39 1d 3e 3a 30 65 3c 1b 68 9c bc
       0.04570596 0.15353784 0.013988549 -0.01909261
000140 65 bc d9 3c 3f 1b 02 bd 2a 02 b2 3c 23 29 70 bf
       0.026579091 -0.031764265 0.021729548 -0.9381277
000150 67 9f 45 3d f4 bd 5a 3c 3c a7 55 bd 41 ad e6 bd
       0.04824772 0.013350952 -0.05216144 -0.11263514
000160 8f a4 87 bd f9 44 44 be bb 96 2d 3d 1b e5 a6 bd
       -0.06623184 -0.19166936 0.042380076 -0.08149167
000170 e1 80 35 be 24 7d 9d bd 4a c5 95 be 03 ca b5 3c
       -0.17724945 -0.07689884 -0.29252082 0.022191053
000180 d9 55 a5 3d 83 d9 cd bc 7e 8a ce bd 72 05 b4 bd
       0.08073015 -0.025128132 -0.10085009 -0.08790101
000190 c4 c4 d0 be b8 1a eb 3d 29 7b 17 bd 22 c2 08 bd
       -0.4077512 0.114797056 -0.03698269 -0.033388264
0001a0 fb 6f 4b bc dd 09 42 bd a9 15 15 bd 26 20 9f bd
       -0.012416835 -0.047372688 -0.03639761 -0.07769804
0001b0 e1 ac b9 bc 20 2c 8b bf 30 28 0c 3d b4 1f 52 be
       -0.022665443 -1.0872841 0.034218013 -0.20519906
0001c0 2d d0 89 3c 0c 8b fc bd 1d fa 13 be cb e5 ae 3c
       0.016822899 -0.123312086 -0.1445088 0.021349808
0001d0 d9 29 75 3c d1 d9 6b 3d 86 c1 c9 bd 49 a3 dc be
       0.014963591 0.057580773 -0.09851365 -0.43093327
0001e0 95 71 18 3d b1 e3 fd bd 85 36 06 bd 6f 1b 42 bd
       0.037217695 -0.12396944 -0.032766838 -0.047389444
0001f0 7e 93 81 bf b1 b4 e3 bd 1f 19 68 bd 37 e6 bf 3d
       -1.0123136 -0.111184485 -0.056664582 0.09370082
000200 cf 4c 95 3d 8c 2d d2 3c df db 10 3e 8d a3 cc 3c
       0.07290041 0.025656484 0.14146374 0.02498033
000210 3d 72 b2 3d 9f d0 32 bd 47 2e a9 bd bd 76 86 be
       0.087131955 -0.043655988 -0.0826078 -0.26262465
000220 36 b8 11 bb c7 bd 51 3e c2 1b 18 3d ae fa 59 be
       -0.0022235042 0.2048255 0.037135847 -0.21287033
000230 e7 20 48 be 3f 72 39 3d 90 34 68 3d a1 fe 5f bd
       -0.19543801 0.04527497 0.056690753 -0.054686192
000240 e1 d4 9e bd d8 71 78 bc 46 4d c5 3c b4 e3 88 3d
       -0.07755447 -0.015163861 0.024084698 0.06684056
000250 4b f3 64 be 11 f6 98 3d 24 58 04 be 2b c3 a6 bc
       -0.22358434 0.074688084 -0.12924248 -0.020356735
000260 f8 23 47 bd 70 73 84 bd 33 aa 85 bc d7 37 53 be
       -0.048618287 -0.064673305 -0.016316509 -0.2062677
000270 6c a8 bb 3b 7d 73 4d 3d 4e 74 9e be a3 4d 01 3d
       0.0057268646 0.050158966 -0.30948108 0.03156818
000280 61 6f 72 bd fa 0a a5 3d d3 6e e5 bb 3d 39 f7 3a
       -0.05918825 0.08058734 -0.0070017367 0.0018861663
000290 62 d3 f6 3d 73 5a 0b 3b 10 98 c5 3d 38 3a 8b bc
       0.12052037 0.0021263629 0.09648144 -0.016995534
0002a0 35 7c a8 3d 49 dc 22 bc ee 4f 37 3d 16 81 05 bc
       0.082268156 -0.009940215 0.04475396 -0.008148452
0002b0 60 38 15 3d 9f 04 7f 3c 8a 65 b3 be 14 c5 46 bd
       0.036430717 0.015565067 -0.35038406 -0.048527792
0002c0 d3 1e 60 3d d8 1d cf bd 94 10 05 3c a3 53 31 3d
       0.054716896 -0.10113114 0.008121628 0.043292653
0002d0 27 32 31 3e fb 2a 02 3e b5 da 67 be 57 00 93 bd
       0.17304288 0.12711708 -0.22642024 -0.07177799
0002e0 f8 b0 0b 3d 07 79 9f 3c 3e 1b 92 bd 3a a4 ed 3d
       0.034104317 0.01946689 -0.07134102 0.11603589
0002f0 af 45 29 3d 83 77 a2 3d a5 c5 76 bd 24 e4 f2 bc
       0.04132622 0.07932951 -0.060247082 -0.029649802
000300 4b 68 56 3b f5 d1 bf 3d 65 41 60 3c b0 89 20 3b
       0.0032715972 0.09366218 0.013687466 0.002449613
000310 56 13 77 bd 41 3f 9f bd 77 ed 16 bc 36 03 a0 3d
       -0.060321175 -0.077757366 -0.0092118895 0.078131124
000320 73 fe dc bc 54 d4 fe 3d a3 a9 4e bc 42 8d bb bc
       -0.0269768 0.12442842 -0.012613687 -0.022894505
000330 c7 c6 1e bd 5f 50 68 3d 13 1c c6 3c 29 8b 4e bb
       -0.038763788 0.056717273 0.024183309 -0.0031516051
000340 90 58 14 3d 77 11 ec 3d d3 5b 44 bd fe ab 51 bc
       0.036217272 0.11526769 -0.047939133 -0.012797354
000350 ca c9 a0 bd c2 fc 14 3e 0f 3c 9b 3d 72 60 e6 bd
       -0.07850988 0.14549544 0.07579815 -0.11248864
000360 25 43 02 bd db 4e 4a be 44 fe a1 bb c5 94 6c bd
       -0.031802315 -0.19756643 -0.004943641 -0.057759065
000370 47 52 99 3d e7 e0 9b 3c e4 9b 9c bd b1 b1 dd bd
       0.07486396 0.01902814 -0.07646921 -0.108249076
000380 14 c0 8a 3d b9 a0 a5 3d f6 21 7f 3c b1 c0 5c 3d
       0.06774917 0.08087296 0.015572062 0.053894702
000390 1e 71 e4 3d 7b 5f a2 bd 3c 1e 1d bc 80 80 75 3d
       0.11154388 -0.07928368 -0.009589728 0.059937
0003a0 b7 bd ca 3c ec 97 e9 3d bf 36 32 bd 50 60 27 bc
       0.024748666 0.1140593 -0.04350924 -0.010215834
0003b0 d4 4c 5a be 95 7f 2f bd c7 f7 cf bd 7a ba 5f bd
       -0.2131837 -0.04284628 -0.10154682 -0.054621197
0003c0 eb c8 01 bd 9e 1e a2 bd bc 2c a5 3d 9f dc 8d bd
       -0.03168575 -0.07915996 0.08065173 -0.06926846
0003d0 fc c1 42 3d 2e 53 ef 3c aa 76 82 be fe d6 3a 3c
       0.04754828 0.029214468 -0.25481158 0.011403797
0003e0 b2 02 95 bb 0c 00 b8 3d ef 99 7b bd e3 55 10 3e
       -0.0045474404 0.08984384 -0.0614261 0.14095263
0003f0 7c dd 59 3c 66 6b 34 bd ee 21 20 3d c0 2b 23 3d
       0.013297435 -0.044047736 0.039094858 0.039836645

fc.1.bias f4 [256]
000000 63 2e a9 bb 1d 7b 2a 3d 95 04 ff 3d 94 e5 9c 3e
       -0.0051630004 0.041621316 0.12452046 0.30643904
000010 2f 11 71 3e b0 9f 1b be 37 b9 bf 3a 7b d3 68 3c
       0.23541711 -0.15197635 0.0014627342 0.014210577
000020 d1 6e 62 bc d3 07 fe 3d de 37 23 3d f4 7c 87 bd
       -0.013820366 0.12403836 0.0398482 -0.0661563
000030 28 28 16 3e 23 89 1b be 17 9f a8 bd 18 1f 1e be
       0.14663756 -0.15189032 -0.08233469 -0.15441549
000040 97 67 9e 3d bd a1 8c bd 8a 7c 95 3d 1b cd c0 bd
       0.07734602 -0.06866787 0.072991446 -0.09414121
000050 0b c6 6a 3b a4 e3 95 3b e1 11 56 bc 6a e0 95 bd
       0.003582361 0.004574256 -0.013065786 -0.07318194
000060 75 fb ba 3d 7b 54 77 bd cb 36 36 bd 44 91 58 bd
       0.09129993 -0.0603833 -0.04448585 -0.05287291
000070 7f 3d 08 3e a7 eb 77 3c 0a c0 de 3d 9a d2 9d 3e
       0.13304709 0.0151318675 0.10876472 0.3082474
000080 6c 1f a2 3e 77 7c c6 bd cc db a6 bd 1d 95 0e 3e
       0.31664598 -0.096917085 -0.08147392 0.1392407
000090 f4 43 81 3e 06 06 90 bd a7 1e a8 3c 6e 45 9e be
       0.25247157 -0.07032399 0.020522429 -0.30912346
0000a0 d0 23 10 bb fa df 13 bd a2 b7 ac 3b fd 0a 2c 3d
       -0.0021994002 -0.036102273 0.005270914 0.042002667
0000b0 b5 fa cf 3c 61 48 9e 3d 9b f6 fa bd c7 f0 f5 bc
       0.025388101 0.07728649 -0.122540675 -0.030022038
0000c0 82 fd f7 bc 66 3e 51 be 0d 1c 1f 3d 0f 52 a0 bd
       -0.03027225 -0.2043396 0.03884511 -0.078281514
0000d0 ee 54 b8 3d 3d ba af 3d 94 0c 3d 3c 22 19 46 3d
       0.09000574 0.08580444 0.011538643 0.048363812
0000e0 67 a3 25 3d 54 19 1a be 92 e7 cc bd 4c d2 c2 bd
       0.040439036 -0.15048724 -0.10005106 -0.09512767
0000f0 83 04 7c 3d 63 52 c7 3e d5 e6 8c bd 84 14 18 be
       0.06152774 0.38930044 -0.06879965 -0.14851576
000100 62 1c 06 3e 9b f3 dd 3e 8b 23 f2 3d 7f 74 85 3c
       0.13096765 0.4334992 0.118231855 0.016290901
000110 b6 6f 7b bd 7a 74 ad bc 27 78 95 bd 07 4a 94 bd
       -0.061385833 -0.021173704 -0.07298308 -0.07240682
000120 d2 fd b4 bd 39 ce 4e be 2f 1b 12 3e 32 86 12 3e
       -0.08837475 -0.20195855 0.14268182 0.14309004
000130 38 f6 48 be 52 39 4b bc f7 67 63 bd c5 98 4d bd
       -0.19625175 -0.012403803 -0.05551907 -0.05019452
000140 eb d2 f7 bc 14 e7 bd bd fa 40 70 3e 22 d0 c5 bd
       -0.03025194 -0.0927259 0.23462287 -0.09658839
000150 18 e1 22 bc 80 27 9d 3e a4 48 d3 3d 47 b4 d4 3d
       -0.009941362 0.306942 0.103165895 0.10385948
000160 81 b0 94 3e e7 b9 a0 ba 29 5b e2 3d df c8 c6 bd
       0.29040912 -0.0012262434 0.11052544 -0.09706282
000170 e8 64 f6 bd 45 ca 90 bd 88 9f b4 3d f9 53 ef bd
       -0.12030965 -0.0706983 0.08819491 -0.116859384
000180 4f 1f 58 bc 7f 18 94 3d 48 32 53 3d da 4e 79 3d
       -0.013191058 0.07231235 0.051561624 0.060866214
000190 33 2f e7 bc e0 0b 47 bd bc 3a ab 3e 17 7a f2 bc
       -0.028220749 -0.04859531 0.33443248 -0.029599233
0001a0 1e a9 1b bd 03 40 ee 3d 2e 65 4f 3d eb 6f a5 3e
       -0.03800308 0.11633303 0.0506336 0.3231195
0001b0 94 f7 7d 3d 0e e8 a6 bd 9b b6 11 bd 14 16 6a 3e
       0.062003687 -0.0814973 -0.035574537 0.22859985
0001c0 1e 15 94 bc 48 f9 9f be 57 7a cd bd ad c0 4e 3e
       -0.018076476 -0.31244874 -0.100331 0.20190687
0001d0 ce 12 ee bd 93 24 0a 3e 32 69 b9 bb e6 f8 8c bc
       -0.116246805 0.13490514 -0.005658292 -0.017208528
0001e0 39 07 dc 3e 63 5a 26 3d 3b 38 63 bd b0 dd 3e bd
       0.4297426 0.040613543 -0.055473547 -0.046598136
0001f0 f3 78 9d bd ba b1 42 bd d4 ad f3 3b 86 3f a5 bd
       -0.07689085 -0.047532775 0.0074364934 -0.08068757
000200 64 85 2c 3d 08 25 9f 3d 28 e2 99 bd 82 3c 43 be
       0.0421194 0.07770735 -0.07513839 -0.1906605
000210 be 00 8f bd 0b 92 c6 bd ce e7 46 3e 71 46 6e be
       -0.069825634 -0.09695824 0.19424364 -0.23269059
000220 8d 9e 00 be f2 95 02 bd a3 9d e6 bd 78 88 6e 3d
       -0.12560482 -0.03188128 -0.112605356 0.058235615
000230 5f a5 31 bd 7e d5 ac bd c3 d9 35 3d b1 dd f6 bd
       -0.0433706 -0.08439158 0.044397127 -0.12054003
000240 17 a1 4a 3b 9a f0 3c 3e dd 71 4a bd 98 40 c7 3d
       0.003091877 0.18451157 -0.049424995 0.09729117
000250 51 f1 b9 3d bc 96 4e 3e f5 52 ba bc 9b a9 6e 3c
       0.090792306 0.20174688 -0.022744635 0.014566804
000260 12 05 86 3d 83 78 4a bd ec 9a 0d 3c 27 88 49 3d
       0.06543936 -0.049431335 0.008642893 0.04920211
000270 73 bc f1 bd cd 0b 98 bd dc d2 11 be 53 0f 72 3d
       -0.11803522 -0.07424126 -0.14240593 0.059096646
000280 6e 3b 64 3e 21 d8 21 be ff fd ff bc b1 67 80 3e
       0.22288296 -0.15805103 -0.031249044 0.2507911
000290 d0 66 70 be 2e c0 e6 bd 11 97 03 bd 6e 1c aa bd
       -0.2347672 -0.11267124 -0.03212649 -0.08306204
0002a0 ff 92 49 3d 51 5d bd bc d6 c6 5f bb 17 88 30 be
       0.049212452 -0.023115786 -0.0034145615 -0.17239414
0002b0 77 03 52 3e 9d 1c fc bc 80 89 d7 bd 90 d9 4e be
       0.20509134 -0.030775363 -0.10524273 -0.20200181
0002c0 c2 74 1a bd 78 a1 17 bd 05 25 96 bd e1 35 88 3c
       -0.037709005 -0.037019223 -0.0733128 0.016627254
0002d0 3d 02 14 3d 53 9c f6 3b df 3d 0c be 2e 82 02 be
       0.036134947 0.0075259595 -0.13695477 -0.12744972
0002e0 e9 ad 85 3d 49 d2 c9 3d 8b a4 b5 bd df 19 bb bd
       0.06527311 0.09854562 -0.08869275 -0.09135794
0002f0 cd d9 7a bd fd 4b 0c be 3f 23 f0 3b 5e 87 15 bd
       -0.061242867 -0.13700862 0.0073284204 -0.03650605
000300 f3 06 b5 3c 81 b4 22 be e6 4d 0d be c6 be 17 bd
       0.02209804 -0.1588917 -0.13799247 -0.03704717
000310 30 e0 e9 3d 52 c0 09 3e 0e 15 aa 3a 2b 96 fd 3d
       0.114197135 0.1345227 0.0012976245 0.12382158
000320 df 97 14 3e 18 9e 04 be c4 72 4a bc f4 72 43 3b
       0.14511059 -0.12950933 -0.012356464 0.0029823156
000330 b4 36 5a be 2d 38 70 bd a1 7e 37 3c c9 7f 0b 3d
       -0.2130993 -0.058647323 0.011199624 0.034057412
000340 a7 7d 66 bd 90 66 ab bd f0 72 b5 3c ad 99 8d 3d
       -0.056272175 -0.083691716 0.022149533 0.06914077
000350 cc 38 0b 3d 87 d3 01 3d f3 ff 46 bc 9b 53 fa 3e
       0.033989713 0.03169587 -0.012145984 0.4889191
000360 b2 06 14 3d 41 fe 16 bd 62 29 ee bd ad 3c ca 3d
       0.036139198 -0.03686357 -0.11628987 0.09874854
000370 7e 1f 9d 3e 6a 2b c1 bd 30 54 8b 3c 9e 83 09 be
       0.3068809 -0.09432109 0.017007917 -0.13429114
000380 d2 04 b6 3c f3 3f 40 bd 60 77 1b be a9 4e 90 bd
       0.022219095 -0.046935987 -0.15182257 -0.07046253
000390 46 fa 77 bd 2e eb 57 bd 17 f6 d1 bd b6 c2 1c bd
       -0.060541414 -0.05271452 -0.10252016 -0.03827163
0003a0 3d 33 05 3d f3 62 9b bd da d9 7a bc a4 fd e7 bd
       0.032519568 -0.075872324 -0.015310729 -0.11327675
0003b0 1b 2d 88 3c a7 e4 b3 bc f0 00 8f 3b 85 68 a3 bd
       0.01662307 -0.021959616 0.0043641254 -0.0797892
0003c0 fd b0 37 3d 35 b7 61 3c 3f 00 7f 3c 31 ec 29 be
       0.044846524 0.01377659 0.0155640235 -0.16594006
0003d0 63 04 a5 3d 60 27 9c 3d 9e a5 12 3e ce 57 26 3d
       0.08057477 0.07624698 0.1432099 0.04061108
0003e0 c8 76 47 3e 81 64 be 3d a9 86 01 3e f5 1c 26 be
       0.19478905 0.09296513 0.12649025 -0.16221984
0003f0 81 81 9f 3d f2 7a 18 3e 59 5c f3 3c 16 37 d9 3d
       0.07788373 0.1489065 0.02970712 0.1060621

fc.3.weight f4 [8, 256]
000000 a9 81 e0 bc 01 ca 08 3e 9e 53 78 be fe 62 f2 3c
       -0.027405577 0.13358308 -0.24250647 0.029588219
000010 a3 ba 59 3c 61 86 08 3c 3d 1a a2 bc ea db 35 bd
       0.013289127 0.00833282 -0.019787902 -0.04439918
000020 92 af ae 3d 74 3b 9e 3d 8b 5e 40 3d e3 81 4d bd
       0.08529581 0.077261835 0.046965163 -0.050172698
000030 82 60 ca bd 84 e4 36 3c 29 98 8b 3b 77 d0 ca bd
       -0.09881689 0.011162881 0.0042600823 -0.09903043
000040 60 00 ee bd d0 28 2b 3e d5 74 50 3c 33 15 de bb
       -0.11621165 0.16714787 0.012723167 -0.0067774295
000050 57 a6 05 3d 7c 5e bc bd 89 80 74 3c 20 9e 21 bd
       0.032629337 -0.09197709 0.014923223 -0.03945744
000060 bc 90 d9 bd 86 49 85 be 92 64 47 3c 7f 57 f3 bc
       -0.10623309 -0.26032656 0.012169974 -0.029704807
000070 5b c2 39 3d 69 a3 b5 3d 6c b8 ac bd 45 31 17 3c
       0.045351367 0.08869059 -0.08433613 0.009228055
000080 d9 6f 44 3c e3 d4 aa 3b 3e ca a7 bd e8 e6 e0 3d
       0.011989557 0.0052133664 -0.081928715 0.10981542
000090 9c d6 85 be 2e a0 22 3e 99 73 81 3b 9c 10 1c bd
       -0.26140296 0.15881416 0.003950548 -0.038101777
0000a0 e4 2d 15 bd 4b 56 11 be 74 6c 5a bd e7 e3 10 be
       -0.036420718 -0.14193074 -0.053326085 -0.14149438
0000b0 bb ae b1 3c 78 ff 13 3c a6 1a 59 bd 90 c9 3c 3d
       0.021689763 0.009033076 -0.05300393 0.046090662
0000c0 2a c0 0d 3d 09 81 15 be 8e 18 68 bd 0c 93 5b bc
       0.03460709 -0.14600004 -0.056664042 -0.013401758
0000d0 dd 9a 7c bd c4 77 de bc 51 8e 60 3d 7d 23 0c 3c
       -0.061671127 -0.027156718 0.054823224 0.008553383
0000e0 c5 c7 3e be 20 83 56 bd a6 01 8b 3c 3f 00 68 be
       -0.18630894 -0.052371144 0.01696856 -0.22656344
0000f0 78 6d 87 3d 4d 94 2f be 73 e0 30 bd 9c ad 53 bd
       0.066126764 -0.17146416 -0.0431828 -0.05167924
000100 e7 68 06 3d b3 e2 93 be 12 ff d4 3d 48 5a 40 3c
       0.032814886 -0.28883895 0.10400213 0.011740275
000110 51 51 b4 bd 20 00 95 3c b4 81 c8 bc 2f 46 a1 bd
       -0.088045724 0.018188536 -0.02447591 -0.078747146
000120 61 25 f5 bd e1 7e 28 be fa 8a 07 3d 4c 4b ec bc
       -0.1197002 -0.1645465 0.033091523 -0.028844498
000130 d9 0c b9 bd a0 40 55 bc bb de 9f bc ae c9 d5 3d
       -0.090356536 -0.013015896 -0.019515386 0.10438858
000140 ad 0e f7 3c 94 52 cc 3d b7 81 05 be 13 b5 24 bd
       0.030158365 0.09976688 -0.13037764 -0.04021175
000150 41 04 80 bc 93 5b 1a be e6 59 3e 3d 11 e0 8a 3d
       -0.015627028 -0.15073995 0.046472453 0.067810185
000160 49 17 b7 bd 72 0b f0 3c 6b a9 ad 3d bc ef 85 bd
       -0.08939988 0.029302333 0.084795795 -0.06539866
000170 e5 9d 2e bd ab bd 49 bb 68 46 ee 3d c0 86 4d bd
       -0.04263105 -0.0030783217 0.11634523 -0.050177336
000180 80 1c 89 3d fe 83 32 3d 0d 15 9d 3d bd d0 5f 3d
       0.06694889 0.04358291 0.07670031 0.054642428
000190 1f 57 01 bd 82 70 2e be 29 02 69 3d 27 20 5c bc
       -0.031577226 -0.17035106 0.056886826 -0.0134354
0001a0 44 fc 47 3c a1 1c 3c 3d 96 24 ad bd 6f 9c 77 3e
       0.012206141 0.04592574 -0.08454244 0.24180768
0001b0 c7 30 89 bd 1f af 82 bb ee 7f 49 bd cc 02 cc 3d
       -0.06698757 -0.003988161 -0.04919427 0.09961471
0001c0 6e 9f a7 bd 55 e3 e8 bc 37 00 a6 bd 68 0c 3c 3d
       -0.08184706 -0.028428713 -0.0810551 0.04591027
0001d0 16 f0 fc 3b 63 62 84 3d 62 db 9a bd 0a 05 53 3d
       0.00771905 0.06464078 -0.07561375 0.051518477
0001e0 2a d0 97 be bb 0f c9 bc 68 fa 8b bd 58 ba f2 3d
       -0.29651004 -0.024543634 -0.068348706 0.118519485
0001f0 a4 76 87 bd 2e 28 83 3c 33 47 14 be 3f 07 1e bd
       -0.06614426 0.01601037 -0.14480285 -0.03858113
000200 24 98 5e be 87 f2 8a bc c6 c8 63 3d 54 24 04 be
       -0.21737725 -0.01696135 0.055611394 -0.12904483
000210 2e b7 1f bc 32 fb 55 bc 67 c5 dc 3d 62 04 26 bd
       -0.009748263 -0.013060378 0.10779839 -0.040531524
000220 33 2f 3a be 4b 69 a6 be 67 e5 db bd 5d 88 aa 3c
       -0.18182068 -0.32502207 -0.107371144 0.020816976
000230 bc 4b 68 3c d3 c0 1a bc 6f 55 da ba d3 c1 ac bc
       0.014178213 -0.009445387 -0.0016657541 -0.021088516
000240 4b 50 cb 3c 67 fb 21 bf 70 78 b0 bb f0 ee 8f 3d
       0.02481856 -0.63274235 -0.005385451 0.070279956
000250 20 bf 65 be 19 e6 cb 3c 3d e5 2b 3c 00 49 44 3d
       -0.2243619 0.024889993 0.010491666 0.04792118
000260 3a 64 15 bd 7e 79 a1 bc aa 4b a4 3c 8a be 95 be
       -0.036472537 -0.019711252 0.02005561 -0.29246932
000270 f1 87 11 bd b7 2e d5 3c 29 4d 5e 3d 38 72 28 be
       -0.035530034 0.026023252 0.054272804 -0.16449821
000280 b9 81 7e 3d 66 ae d7 bc a2 d8 a6 3c d7 a6 34 3e
       0.062135432 -0.026328277 0.02036697 0.1764177
000290 e2 d1 9f bd ce 50 5c bc 38 d0 e8 bd 3a 5a 4c 3d
       -0.07803704 -0.013447 -0.113678396 0.049890734
0002a0 b0 9d 86 bd 9a e2 86 bd 31 67 98 3c 22 d0 df bc
       -0.06573045 -0.065861896 0.018603893 -0.027320925
0002b0 b6 bf dc ba b0 26 53 bd bf 51 7a bc e9 90 00 bd
       -0.0016841802 -0.051550567 -0.015278279 -0.031388197
0002c0 ea a2 2b 3c 2d 54 81 3c 48 b9 dd 3c 8c a2 c9 3b
       0.010475853 0.015787208 0.027065888 0.0061534103
0002d0 54 27 7a 3a 34 f2 25 bd ca 8c 54 bd 13 93 aa bd
       0.00095426035 -0.040514186 -0.05189208 -0.083288334
0002e0 62 da ef 3c e8 02 59 3d 1e 67 bb bc d4 63 2e bb
       0.029278938 0.052981287 -0.022876319 -0.0026609795
0002f0 b9 07 1e be 71 35 15 bc ff c8 18 3d e2 ab e1 b9
       -0.15432633 -0.00910698 0.03730106 -0.00043043407
000300 c4 69 02 3d e5 c9 d0 bd fa 9e be bc bc 5b 82 bd
       0.031839147 -0.10194758 -0.023269165 -0.06365153
000310 7e e2 4e 3c 90 a5 95 3c 4e c4 09 3d b0 97 ff 3d
       0.012627242 0.018267423 0.033634476 0.12480104
000320 f5 28 c2 bd 62 00 5a bd ca 55 cf 3d ce b5 5b be
       -0.09480468 -0.05322302 0.10123785 -0.21456072
000330 de f3 1e 3d 4c a7 8d 39 b5 aa 2b bd 04 99 fb ba
       0.03880679 0.00027018262 -0.041910846 -0.0019195382
000340 cc 00 8b 3b 6c a0 0c 3a ab ea 2f bd 78 f0 1d be
       0.0042420384 0.0005364481 -0.042948406 -0.15423763
000350 ce 85 49 3d 33 06 8f 3b fe 5d c4 bb c3 7d 6e bd
       0.04919987 0.0043647527 -0.00599265 -0.058225404
000360 ca 58 1d bd 8a b0 0f ba 6a 5c 14 bc 0c f9 da be
       -0.038414754 -0.00054813235 -0.009055236 -0.42768133
000370 56 59 06 3d 0a 77 8a 3c bb 18 17 be cb fb 57 bb
       0.03280004 0.016902465 -0.14755528 -0.0032956477
000380 e7 37 09 3d a9 61 23 3d 3a 15 c7 bd 6c 04 3d bd
       0.03350058 0.039888058 -0.097208455 -0.046146795
000390 d5 3a 7a be ae 68 3c 3c f8 76 65 bd bb b0 5d 3c
       -0.24436505 0.011499567 -0.05602166 0.013530905
0003a0 4a d0 3c bd eb ee 02 be 35 00 30 3d 8a 13 3e bd
       -0.046097077 -0.12786452 0.042968947 -0.046405353
0003b0 4a 24 4b 3d 37 39 b7 ba 24 37 17 bd fa da 1d bd
       0.049595155 -0.0013978843 -0.03691782 -0.03853891
0003c0 8f 85 02 3c 0d 6f ff bd fb 1d 1f bd 60 84 b4 bd
       0.007966413 -0.12472353 -0.03884695 -0.08814311
0003d0 96 db 7e bc 84 f7 e8 3c b7 a0 f4 3c 9e c9 d3 bc
       -0.015555283 0.028438337 0.029861791 -0.025852975
0003e0 61 84 07 bf 08 69 0f 3e 87 a2 c2 be 64 f6 02 bd
       -0.5293637 0.1400491 -0.38014624 -0.031973258
0003f0 f4 b5 2d 3d f8 0b 41 3b c2 42 34 3d f8 86 6f bd
       0.042409852 0.0029456597 0.044008978 -0.058478326

fc.3.bias f4 [8]
000000 0b 9f 0a 3e f6 8d 4b be 65 f3 b5 bc fa 73 8a bd
       0.13537233 -0.19878373 -0.022210786 -0.06760402
000010 6c 64 98 bc 79 50 69 bd c9 9e 1b bd c8 ae c8 3e
       -0.018602572 -0.05696151 -0.037993226 0.39195848
